models/SiameseDense_hidlayer6_128unite_lr10-5_BCE_best.pt (torch, 367585 bytes, 38 tensors)

linear.0.weight f4 [128, 22]
000000 7a b5 f8 3d e3 32 0d 3e 63 f1 0f bd f1 73 4b 3e
       0.12143989 0.13788943 -0.035142314 0.19868447
000010 f1 3a a2 3c 39 3d 42 3d b1 c3 c6 bd 04 53 01 3e
       0.019803496 0.047421668 -0.09705294 0.12629324
000020 8e ad 36 3e 0a 03 88 bd 6e 75 45 3e 93 42 22 bd
       0.17839643 -0.06641205 0.19283077 -0.03961427
000030 30 d2 9a 3d 71 f9 3c bd 17 63 59 3c 16 07 aa bd
       0.07559621 -0.046136323 0.013268254 -0.08302133
000040 2f 5f a9 3d be 03 96 bc cb 9e ee bd ba 1e 33 3a
       0.08270108 -0.018312331 -0.11651381 0.0006832887
000050 e2 f1 ca bd 82 1a 81 bd 30 13 ba bd 98 30 02 3e
       -0.09909417 -0.06303884 -0.09085691 0.1271385
000060 c7 fa 21 be 5c 20 be bd 3e 12 8d bd ff 70 01 be
       -0.1581832 -0.09283516 -0.06888245 -0.12640761
000070 6c 1e 95 3c d4 0e 50 be 0c eb 35 3e c9 2c 42 be
       0.018202983 -0.20318156 0.17765445 -0.18962397
000080 88 6c 14 3e e5 4c 77 3d b6 71 b2 bd 1f 51 04 3e
       0.14494526 0.060376067 -0.08713095 0.1292157
000090 e6 c6 34 3d 62 e2 2d 3e 36 0c e7 3c ca b6 81 bd
       0.044134997 0.1698089 0.028204065 -0.06333692
0000a0 1b 41 53 3d dc 9e a2 bd 5a 92 a1 3d 5d 94 35 3e
       0.05157576 -0.07940456 0.078892425 0.17732377
0000b0 01 92 04 3e a0 29 b0 bd 1d 9e f5 3d 29 c9 53 3d
       0.12946321 -0.08601689 0.11993048 0.051705513
0000c0 e5 bf db 3d f7 46 f3 bd ec 3b 46 be 19 ad a0 bd
       0.1072996 -0.1187877 -0.19358796 -0.07845516
0000d0 fe 27 19 be 2b af 3b 3e 16 d3 9f 3d 00 3c 9c 3d
       -0.14956662 0.1832854 0.07803933 0.076286316
0000e0 27 7c 8b 3d 7e 72 5d bc c5 65 1f 3e 4f 8a 19 be
       0.068107896 -0.013516067 0.15566166 -0.14994167
0000f0 97 93 b6 3c 9c 07 ed bd 2c e2 93 3d 48 42 4e bd
       0.022287173 -0.11573717 0.07220873 -0.05035618
000100 13 f4 93 3d a6 0f d7 bc e0 ef 3c 3e 89 d7 f9 bd
       0.07224288 -0.026252579 0.1845088 -0.12199313
000110 2d 37 fd bd 5b 44 fc bd 18 b3 43 3e 1e a9 97 3d
       -0.123640396 -0.12317725 0.19111288 0.074053034
000120 45 6b 55 3e 71 f4 2f be 44 d1 4f be 80 cc 2b be
       0.20841701 -0.17183091 -0.20294672 -0.1677723
000130 d3 de 10 be c6 c3 bc 3d 1b a7 a5 3d 64 09 3a 3e
       -0.141475 0.09217028 0.080885135 0.18167645
000140 c9 21 ce bd 3f 1b 0d be 77 45 f4 3d 41 42 a7 bd
       -0.10065038 -0.13779925 0.11927312 -0.08166934
000150 6e 55 05 3e 1d 74 2c bd e0 26 00 3e a4 b2 21 be
       0.1302087 -0.04210292 0.1251483 -0.15790802
000160 29 83 0d bc 26 ea a1 bb eb 79 d8 bb 5c 8c 85 bb
       -0.008637228 -0.0049412427 -0.0066063306 -0.00407557
000170 3a df 54 3b f6 e7 9c 3b 7c 5b 9e bc 47 f3 67 bc
       0.0032481686 0.004788394 -0.019330733 -0.014157123
000180 24 be 28 3c 88 d7 d4 bb 0b 73 e0 bb d6 78 a4 bc
       0.010299239 -0.00649542 -0.0068496517 -0.02007715
000190 05 05 2c bc 11 c7 42 bb 3a 99 97 ba 50 3a 41 bc
       -0.010499244 -0.0029720704 -0.0011566051 -0.011793688
0001a0 56 de f8 ba 5f 6c 3a bc 69 69 63 bc 92 ea 0e bc
       -0.001898716 -0.011378377 -0.013880112 -0.008722918
0001b0 30 2c 92 bc 55 47 22 bc d2 d3 74 3c f1 14 3f bb
       -0.017843336 -0.009904702 0.01494308 -0.002915677
0001c0 8c e6 76 b7 d8 cc 9b bc 13 e5 27 bc e4 b4 e8 bb
       -1.4716421e-05 -0.019018576 -0.010247487 -0.007101642
0001d0 c1 b5 53 bb 8b c1 a1 bc 63 93 07 bc d3 23 5c bc
       -0.0032304379 -0.019745609 -0.008274886 -0.0134362755
0001e0 86 67 05 3a 96 20 d5 bb a4 c5 2b ba a3 05 3d bc
       0.00050889736 -0.0065041287 -0.0006552583 -0.011536988
0001f0 cb 20 70 bc e5 2c 1e bc d1 79 98 bb 5c f5 61 bc
       -0.014656256 -0.009654258 -0.0046531935 -0.013791408
000200 29 48 0d 3c 17 b9 3e bb 10 0f 53 3c 67 d9 c1 3a
       0.008623161 -0.0029102021 0.012882009 0.0014789522
000210 6b 0e be bc a2 c3 95 3c e9 81 0f 3c 20 19 8c 3b
       -0.023200234 0.018281762 0.008759 0.004275456
000220 6b 07 9a bc 51 a4 9a bc 72 7d 4c 3b 60 2d 06 bc
       -0.018802365 -0.01887718 0.00312027 -0.008189529
000230 82 a5 c8 3a a3 f3 dc bc 61 1c b0 3c 61 dd 09 bd
       0.0015308114 -0.026971644 0.021497907 -0.03365839
000240 1f 63 4a bb e4 69 99 3c 24 5b 4d 3c 72 01 63 3c
       -0.0030881835 0.01872725 0.012533937 0.013855325
000250 ec 4d 89 3c ca 32 83 bc 91 93 7c 3b 63 87 ed bb
       0.016760789 -0.016015429 0.0038540105 -0.0072488054
000260 73 c8 03 bb f6 a2 fa bc 09 e6 48 3e c7 17 26 be
       -0.002010849 -0.030595284 0.19619001 -0.16220008
000270 14 74 dc 3d 1b f0 88 3d f5 e6 7f 3d 02 fb f1 bd
       0.10764328 0.066864215 0.062476117 -0.11815454
000280 73 6f 3f 3e 22 19 1a 3d 51 5c ab 3c 3c 7e 49 be
       0.18694858 0.037621625 0.020918043 -0.19677061
000290 39 40 a2 3d dc 30 01 bd f9 80 d6 bd 31 ef 32 3e
       0.07922406 -0.031540737 -0.10473818 0.17474057
0002a0 03 12 2b 3d 94 6e f9 bd 01 99 e4 bd 90 87 65 bc
       0.041765224 -0.12179294 -0.11161996 -0.014009371
0002b0 07 ca e0 3d 2f de 6d bd 8d c4 03 be 98 6c a8 bd
       0.10976034 -0.05807322 -0.12867947 -0.082238376
0002c0 88 97 de bd a1 81 e8 3d ec 4a 29 3e cf 5e d3 bd
       -0.10868746 0.1135285 0.16532487 -0.10320818
0002d0 dc dd db 3d 8c dd cd 3d d0 bf 30 3c 45 08 1b bd
       0.10735676 0.10052022 0.010787919 -0.037849683
0002e0 4b 7b d0 3d c7 22 42 3e 1e c5 0e 3e 6e be 2b bd
       0.10179766 0.18958579 0.13942382 -0.041929655
0002f0 c5 94 97 bd c5 96 b3 bc 67 bb 3d bd 1c 74 ac bd
       -0.074014224 -0.021922478 -0.0463213 -0.084205836
000300 6f 02 95 3d e7 72 f8 3d 4e 7a cc bc 6b 5c 98 bd
       0.07275855 0.12131291 -0.024960663 -0.07439502
000310 6d 0a 02 bd 6c 65 7f bc c3 18 e7 3c 09 a9 53 3c
       -0.031748224 -0.015588146 0.02821005 0.012918719
000320 a6 29 3d bd c6 e6 86 bc 76 a8 44 3d b7 4f b0 3c
       -0.046182297 -0.016467463 0.04801222 0.021522386
000330 74 00 d7 ba df 27 10 bd 52 f9 f6 bc 64 fa 57 bd
       -0.0016403333 -0.035194274 -0.030148182 -0.052729025
000340 7f 63 73 bc 04 f4 ed 3c 90 f4 e0 3c 12 84 b9 3c
       -0.014855265 0.02904702 0.027460366 0.022645984
000350 72 2c 19 bd 57 9b a1 bc be e2 df bb 80 9e 41 3d
       -0.037395902 -0.019727392 -0.0068324497 0.047270298
000360 29 0c 20 3b db 0f 34 bc 7f db 68 3c 35 c4 9f bc
       0.002442131 -0.010990108 0.014212488 -0.019502738
000370 d5 d8 02 be 01 23 2d 3e 70 57 9e bd f7 60 ef bc
       -0.12778027 0.16907884 -0.07731521 -0.029221041
000380 14 7e 49 be 3f c1 22 3e d6 c7 40 3e 60 9b d2 3d
       -0.19677001 0.1589403 0.18826231 0.10283542
000390 02 8e ef bd 40 6a 4a be af 2a 17 be 89 db 31 3e
       -0.11697008 -0.19767094 -0.14762376 0.17368902
0003a0 f9 65 df 3d f1 0e 45 3e a2 c4 00 3e db b6 99 3d
       0.109081216 0.19243981 0.1257501 0.0750558
0003b0 a3 89 8a 3c 2c 8c 12 be b7 1d 28 be 11 0f 30 be
       0.016911333 -0.14311284 -0.16417585 -0.17193247
0003c0 5e bb d5 3d e1 02 97 bd 3a 74 00 bc 03 c9 55 bc
       0.10436128 -0.07373596 -0.007840211 -0.013048413
0003d0 37 72 0f bc 0a 1e 4c bc a2 e0 91 bc a8 0e 25 bc
       -0.008755258 -0.012458334 -0.017807309 -0.010074295
0003e0 20 e6 1f bc da 7c f1 bb 46 ce 7e bc e7 06 49 bc
       -0.009759456 -0.00736962 -0.015552109 -0.012269712
0003f0 0d c0 2c bc 16 e1 20 bc 1e 2c b9 bb d4 fe e9 bb
       -0.010543835 -0.00981929 -0.005651011 -0.0071409736

linear.0.bias f4 [128]
000000 30 84 a7 37 59 95 22 bc 2e 71 07 3a 19 1e 0b 3e
       1.9969506e-05 -0.009923303 0.00051667064 0.135857
000010 12 49 5d b8 bd 7c cd 38 f3 47 b5 ba 81 6f ce 3d
       -5.2758558e-05 9.798396e-05 -0.0013830647 0.100798614
000020 19 71 8f b7 2b 83 a6 3a 79 32 52 3d a9 a8 70 ba
       -1.7099594e-05 0.0012703886 0.051317666 -0.0009180406
000030 d8 bf d6 3d c9 1b 56 bc fa e8 6f b8 22 ad 93 ba
       0.1048581 -0.013068148 -5.7199017e-05 -0.0011266808
000040 93 48 f2 bd 37 13 31 38 7e 12 c5 b9 87 1e 96 b9
       -0.11830249 4.2217984e-05 -0.00037588546 -0.00028632974
000050 06 71 ef b7 f5 fa c3 b7 24 4c 6f 37 df 12 d1 3c
       -2.854365e-05 -2.3362672e-05 1.4263238e-05 0.025521694
000060 4c e3 da 37 e8 4c a4 b9 75 6e 3c 35 7e 40 be b8
       2.6093468e-05 -0.00031337817 7.0196194e-07 -9.0719186e-05
000070 59 fc 37 39 05 40 95 bd 54 7b a5 bb 5d de 46 3c
       0.00017546247 -0.072876014 -0.0050501022 0.0121379765
000080 20 b6 69 39 28 04 95 3d 7d 4e 00 ba 81 70 cc 3c
       0.00022288458 0.07276183 -0.0004894508 0.02495599
000090 f5 90 c3 b9 c5 a0 18 b9 e2 ac 0b 3a ec 30 0a b7
       -0.000373013 -0.00014555741 0.0005328191 -8.2368315e-06
0000a0 d8 76 6a 36 18 41 f6 38 47 1d ca 3a 5c c3 53 3c
       3.4937893e-06 0.00011742319 0.0015420102 0.012924995
0000b0 cd c9 58 b7 ff ec de 38 3a 75 77 3d 63 6a 81 b7
       -1.2921589e-05 0.00010629929 0.06041453 -1.5427539e-05
0000c0 76 05 87 37 71 75 eb 3c 03 5b 4b 3d a1 3a fd 38
       1.6095797e-05 0.028742524 0.049647342 0.000120749006
0000d0 07 2f 80 36 71 e6 f4 bd ca 67 2d 3d 46 94 34 b6
       3.820172e-06 -0.11958016 0.04233531 -2.6908397e-06
0000e0 7f d2 ac 3d c3 14 19 ba 14 68 bd 37 50 1b 00 b6
       0.084385864 -0.00058395806 2.257902e-05 -1.9089384e-06
0000f0 e9 1c 91 3d 45 fd 46 3c ed 37 8b bb ef e2 28 ba
       0.07085592 0.012145345 -0.00424861 -0.0006442507
000100 10 75 04 b9 c5 95 81 b9 9d 81 45 38 e2 a4 68 ba
       -0.0001263211 -0.00024716384 4.7089172e-05 -0.0008874667
000110 da 33 76 36 3a 41 06 b9 05 29 c2 b3 89 27 f0 bd
       3.6687038e-06 -0.00012803535 -9.0412904e-08 -0.11726291
000120 c7 93 d2 37 29 97 75 ba aa 16 db bc e4 7a 09 3c
       2.5102765e-05 -0.0009368533 -0.026744206 0.008391116
000130 4f d6 ce 36 22 06 8d 38 ba d6 57 3c 0f 1b 85 b6
       6.164227e-06 6.724546e-05 0.013173753 -3.966859e-06
000140 c3 32 3f 3d 76 70 6e 3d d1 71 33 ba 74 66 00 bc
       0.04667927 0.05821272 -0.0006845268 -0.007836927
000150 64 17 2f 37 6f df 22 b9 e6 33 2b ba 3c 5f 0a b9
       1.0436259e-05 -0.0001553276 -0.0006530866 -0.00013196183
000160 07 13 12 bc 47 85 84 bd 5f 87 cf bd de 77 57 ba
       -0.008915669 -0.06470733 -0.10133242 -0.0008219461
000170 b2 6c 9c 3d 76 ca 75 b8 f8 1d c6 36 64 a7 25 b8
       0.076379195 -5.860111e-05 5.9043487e-06 -3.949496e-05
000180 14 4e ba 37 dc b4 0d b9 e0 24 00 3c 43 95 05 ba
       2.2209286e-05 -0.00013514183 0.007821292 -0.0005095789
000190 17 a8 e5 bd aa 0f 81 ba 0e e8 a1 3c 1a 40 3b 3d
       -0.11213701 -0.0009846587 0.019763973 0.04571543
0001a0 1e 2e fb b9 ee d2 ce ba 3a bc 04 38 5c 4c 98 b6
       -0.0004790881 -0.0015779415 3.1646552e-05 -4.5388424e-06
0001b0 89 d6 0e 3a 3f d6 8f b8 2a b8 08 b6 a0 74 96 b5
       0.00054488383 -6.858678e-05 -2.0372777e-06 -1.1209813e-06
0001c0 44 58 92 b9 49 3c a1 3d 44 33 7a 37 2e 14 13 38
       -0.00027913053 0.078728266 1.4913097e-05 3.5066325e-05
0001d0 ac 73 18 36 2d 02 03 3e 53 ee 8b 37 38 44 38 36
       2.2717095e-06 0.12793799 1.668107e-05 2.7457845e-06
0001e0 a2 65 8c b9 a4 ed 55 ba 94 02 54 bb 44 18 9c b8
       -0.00026778603 -0.00081607164 -0.003235017 -7.4431795e-05
0001f0 a9 82 0d b6 ca 98 dd b4 65 d2 1a 39 af 65 1a 3a
       -2.1086692e-06 -4.1275626e-07 0.00014764963 0.0005889786

linear.1.weight f4 [128, 128]
000000 ae 89 58 3d 6f d1 ae 3c e0 be be 3b 62 8c 90 3c
       0.052865677 0.0213401 0.005821094 0.017645065
000010 81 c8 d5 3a b1 5f 38 ba 86 28 20 ba d2 83 1a bd
       0.0016310365 -0.0007033302 -0.0006109554 -0.03772337
000020 c1 51 a7 3b 0b 37 ed 39 e1 3d ab bd a1 78 57 3a
       0.0051061814 0.00045245173 -0.08361412 0.0008219574
000030 a9 5e 76 bc 98 29 55 bd 0e fe 82 bb ba 17 8b bb
       -0.015037217 -0.05204162 -0.003997571 -0.004244772
000040 a9 ca 33 bd f6 bb 99 bd ac bb 9a 3a c4 1b 89 b9
       -0.043894444 -0.07506554 0.0011805198 -0.00026151363
000050 94 c6 88 bc 21 5c 8a bd 82 db 64 bd dd 92 81 bd
       -0.016696252 -0.067558534 -0.0558734 -0.0632684
000060 0c 00 7c bd 05 a5 32 b9 ae e7 55 3d 91 18 be 3a
       -0.061523482 -0.00017036877 0.0522229 0.0014503171
000070 9f a3 b6 ba ab 37 46 bd 4d 75 7f bd 28 23 a3 bc
       -0.0013934261 -0.048392933 -0.062367726 -0.019914225
000080 40 3e d0 3a bf d6 d1 bc 40 29 7d 3b bc 5b c7 3c
       0.0015887693 -0.025615094 0.0038629323 0.024335735
000090 70 87 d0 ba 41 7e 1f 3d 7e a7 cd 3a 8a 74 7d 3c
       -0.0015909504 0.038938764 0.0015690175 0.01546968
0000a0 8c a3 59 bd 75 04 1e 3d f2 8d 3d 3c d3 e7 3b bd
       -0.053134486 0.03857847 0.011569487 -0.04587538
0000b0 ca 39 60 bc d8 91 29 3a 87 24 99 bc 94 24 79 bc
       -0.013685653 0.0006468571 -0.018694175 -0.015206475
0000c0 9d b5 97 3c a5 1d c7 bb 7a bb 44 bc 4a 42 c2 bd
       0.018519217 -0.006076532 -0.0120075885 -0.094853
0000d0 47 5e 09 bd 1a c6 84 3d 0c e9 ba bd 0c 21 02 3c
       -0.033537176 0.064830974 -0.091264814 0.007942449
0000e0 68 85 94 3d 94 46 59 3d 1e 0a c3 3c c5 b7 68 bd
       0.07252008 0.053045824 0.023808535 -0.05681588
0000f0 67 2d 8d 3b d9 5f 0e bd 08 cd 09 bb 29 95 7e 3b
       0.004308391 -0.034759376 -0.002102675 0.003884623
000100 f8 f8 5f b9 7c 94 a6 3a fa 54 7d bd 2b 68 70 ba
       -0.00021359685 0.0012709047 -0.061848618 -0.00091707957
000110 c7 a0 6f 3c 7b 5c 55 3d f5 44 cd 3c 0a 8f 99 bd
       0.014625735 0.05209015 0.025057295 -0.07497986
000120 80 2c b0 3c 8f 60 49 3d d2 77 f4 3c bc e0 12 3b
       0.021505594 0.04916435 0.029842291 0.0022411784
000130 cc dc 50 bd 0a 38 bb bc 17 2a 5c 3d 61 7a 84 bd
       -0.05099182 -0.02285387 0.053751078 -0.064686544
000140 7c 7f 97 3c 59 00 ec bc 5d 41 1b 3d 85 d7 e2 bb
       0.018493406 -0.02880876 0.037904132 -0.0069226646
000150 8d d0 1f bd 4c 1a 30 bd cc fb 07 3b d5 cd 95 3a
       -0.03901725 -0.04299383 0.0020749448 0.001142914
000160 f9 57 08 3d c8 f9 8a bd 1e b1 27 3d 15 be fd ba
       0.033287022 -0.06785923 0.040940396 -0.0019359017
000170 35 d5 08 bd 33 14 5d bc 25 2b 35 bd 47 82 0c bc
       -0.033406455 -0.013493585 -0.0442306 -0.008575982
000180 be af 47 bc 38 fa 97 bc ae a5 96 bd 10 2d 9a ba
       -0.012187896 -0.01855193 -0.0735582 -0.0011762697
000190 82 9a a1 bd fa d1 7c ba aa ec dc 3c 7e a9 17 3d
       -0.07890798 -0.0009644326 0.026968319 0.037026875
0001a0 35 47 50 ba 50 0c ce ba 48 ec 71 3c 19 d0 91 3d
       -0.0007945181 -0.0015720222 0.0147658065 0.071197696
0001b0 11 c8 07 3b 5d aa f3 ba c7 47 66 3c fb 83 83 3d
       0.0020718614 -0.0018590201 0.014055199 0.06421658
0001c0 df 38 68 ba 4d e8 e9 bc 43 99 ab bd 90 13 5d 3c
       -0.0008858572 -0.028553152 -0.08378842 0.013493434
0001d0 03 f0 e5 3c b0 92 1b 3d e6 61 2a bd 47 7e 0f 3d
       0.028068548 0.03798169 -0.04159727 0.035032537
0001e0 34 e5 19 3b d6 81 a3 3a 39 bd 9e 3c 50 30 6d bd
       0.0023482563 0.0012474607 0.019377338 -0.057907403
0001f0 92 f4 55 3d 66 1d ea 3c 6c 59 45 bc 7a 17 f2 3c
       0.052235194 0.028578471 -0.012045246 0.02955221
000200 db 06 9d bc e9 21 a8 bb 62 dc c8 bc 28 34 86 bd
       -0.019168308 -0.0051309955 -0.02451915 -0.06552917
000210 a2 96 91 ba db 31 06 3b 34 7b c7 39 b1 26 d6 bc
       -0.0011107514 0.0020476494 0.0003804803 -0.026141496
000220 62 48 27 bc 14 36 23 3b 49 fa 7f bd f6 79 30 3a
       -0.0102101285 0.002490406 -0.06249455 0.0006732041
000230 72 59 9e bc 12 de ae bc bf 1b e3 3c 69 1e 31 3c
       -0.01932976 -0.021346126 0.027723191 0.010810473
000240 d3 8d a4 bc 26 d7 5a 3c 70 61 a4 3a 9e 3e a2 39
       -0.020087158 0.013356959 0.0012541246 0.000309457
000250 07 d9 34 bd 15 ee 25 3d 7b be fe 3c 34 68 0a 3d
       -0.044152286 0.040510256 0.031096688 0.033790782
000260 87 aa 0e bd 8c 8f bd 3a 81 6c c7 bc 65 1b 5d 3a
       -0.034830596 0.0014462336 -0.02434373 0.0008434563
000270 4b 18 6f 3a 3c aa c0 3c f6 75 5e bd 0b 45 37 bb
       0.00091207464 0.023518674 -0.054311715 -0.0027964737
000280 a5 ea 46 3d b5 99 bf 3d a2 e4 c7 ba 97 a2 88 3d
       0.04856362 0.09355489 -0.0015250633 0.066716366
000290 5c c4 59 3b 1a 23 62 bc 1e ba 12 b8 38 09 8d bc
       0.0033228612 -0.013802314 -3.4982448e-05 -0.01721631
0002a0 55 2c 14 bd 93 e1 4c 3d 73 2b 16 bd 14 b8 ed bc
       -0.03617509 0.05001981 -0.03666253 -0.02901844
0002b0 35 cf ba bd 22 22 88 3b 8f d2 cf bc ff f5 89 bd
       -0.09121553 0.0041544596 -0.025368957 -0.06736373
0002c0 ff c9 e0 3c 23 ba 01 3d ba ca d9 3c d2 94 a5 bb
       0.02744007 0.031671654 0.026585925 -0.005053141
0002d0 4c 3c 7a 3d 39 09 3c bc 56 1c 51 3c 10 8b 8f bc
       0.06109266 -0.011476808 0.0127631035 -0.017522365
0002e0 10 d6 55 3c 7e 0b 8b 3d 4a 76 65 3b 3c 5d a0 3d
       0.013051525 0.06789301 0.0035013133 0.07830283
0002f0 15 a4 82 3d 66 a9 99 bc 0b c3 81 3c 6b fc 53 ba
       0.063789524 -0.018757533 0.015840074 -0.00080866244
000300 bf 33 8d ba bf cc 18 3b d2 cf 9d 3a b7 c8 83 bb
       -0.0010772868 0.0023315398 0.0012040085 -0.00402173
000310 3c 11 76 bd a5 e7 48 bd 32 03 94 bd dd 75 23 bd
       -0.06007503 -0.04904904 -0.07227172 -0.039907325
000320 ff b2 2b 3c 6b 06 f3 3a ef f3 48 3d 0c 78 17 bd
       0.010479688 0.0018541341 0.04906076 -0.03697972
000330 13 0a e8 bc 40 3c 6f bd 80 a9 dd 3c 60 c4 b9 3a
       -0.028325116 -0.05840707 0.027058363 0.0014172904
000340 6a 17 60 bc ef 55 d1 3c ba 56 45 bd 4f ae 8e 3d
       -0.013677457 0.025553672 -0.048178412 0.069668405
000350 a1 6b 90 bb 69 8c d0 3c 53 20 3d 3b 76 56 47 ba
       -0.0044073616 0.025457578 0.0028858378 -0.0007604131
000360 78 19 2d bc 7c 62 22 3d 03 59 33 bd 9e 85 a3 3b
       -0.010565154 0.039644703 -0.04378606 0.0049902936
000370 dc 92 35 bd 78 37 83 3d 17 1c 82 bd cc db 76 bd
       -0.04432951 0.06407064 -0.06353014 -0.06026821
000380 b8 08 33 3d f2 bb 63 bd b8 7b 39 3d 5d 39 99 3b
       0.043709487 -0.05559916 0.045284003 0.0046760277
000390 f2 fb 73 3d f7 6a 59 bb 2c eb 3a 3b 51 a2 e0 bc
       0.059566446 -0.0033175328 0.002852152 -0.027421148
0003a0 2e 5d 66 3b 12 e0 01 bb 14 bf 5a 3c 17 28 6f 3c
       0.0035150754 -0.0019817394 0.013351221 0.0145969605
0003b0 de 02 88 3b 77 c1 50 3a 20 45 db 3c 7e 41 50 bd
       0.0041507324 0.0007963399 0.02676636 -0.05084371
0003c0 c9 80 b4 3a da d5 57 bc 61 e1 db bc 0a d9 b6 bc
       0.0013771291 -0.013173545 -0.026840867 -0.02232029
0003d0 cb 5e a8 bc e9 c3 a1 bc b9 12 8f bd 02 47 16 3d
       -0.020553013 -0.019746738 -0.06985993 0.036688812
0003e0 bd c1 97 bb 91 75 8f 3b 37 78 87 bc 0d 0b 62 3d
       -0.0046312497 0.0043780287 -0.016536815 0.05518632
0003f0 28 8f 42 3d 5d 82 56 bd 69 03 c0 3c 9e 4a bb 3b
       0.047499806 -0.052370418 0.023439126 0.005715682

linear.1.bias f4 [128]
000000 3c b6 b0 bc da 5b a9 bc e5 6d db 3c bd 39 89 bc
       -0.021571271 -0.020673681 0.0267858 -0.016751165
000010 42 96 09 bd f6 08 3a 3c 0e 11 6c bd 40 58 52 bc
       -0.033590563 0.0113546755 -0.057633452 -0.012838423
000020 e6 aa d0 3c 0f 07 fa ba a0 6f 4a bb 20 8b fc 3c
       0.025472116 -0.001907559 -0.0030889288 0.030828059
000030 7d cb d1 3b 88 b6 a5 3c 66 bc be 3c b9 15 ba bc
       0.0064024315 0.02022864 0.023283195 -0.022715436
000040 05 8a f2 3a 35 c7 a2 bc 0b 8b ea 3c c5 3f 91 b9
       0.0018504268 -0.01987038 0.028630754 -0.00027704067
000050 96 5d 50 3d bc 63 ca 3a 8c 45 19 3c 70 72 17 bd
       0.0508705 0.00154411 0.00935496 -0.03697437
000060 2c 6d 15 bc f2 53 b4 bc b0 2d cd 3b 05 8f 7e 3b
       -0.009120267 -0.022012684 0.00626155 0.003884257
000070 5b af c0 3c 59 88 da 3c c8 96 36 bd da 19 91 bc
       0.023521116 0.026676344 -0.04457739 -0.017712522
000080 db cf a9 bc f5 42 89 3b aa 6c d6 bc 75 f2 4f bd
       -0.020728996 0.00418889 -0.026174862 -0.050768334
000090 31 7e 8e bc b2 0a 7d bc 81 5c f7 3b 18 89 a5 bc
       -0.017394157 -0.0154444445 0.007548869 -0.020206973
0000a0 87 83 8b 3c c9 2b e4 3a 4c 1d a2 bc bc 8b 9a bb
       0.01703049 0.0017408069 -0.01978936 -0.0047163647
0000b0 e6 58 53 bc ef 85 04 3b 96 27 42 3c 9a ee 5d 3c
       -0.012899613 0.0020221432 0.011850258 0.013545657
0000c0 1a d7 30 bd b6 88 ac 3b 77 0f bd 3c cd 00 c3 bb
       -0.043173887 0.0052653207 0.023078663 -0.005951023
0000d0 6f 8a 29 bc 48 91 05 bd 35 c6 0d bd 03 2b f4 3c
       -0.010347947 -0.032609254 -0.034612853 0.029805666
0000e0 f3 53 6e 3c 18 17 e5 ba f0 6a ac 3c 4b 99 2e 3a
       0.014546382 -0.0017478196 0.021047086 0.00066604157
0000f0 df 17 68 bc 1e b9 06 3c d4 43 a2 bc 23 a5 11 3c
       -0.014165848 0.008222846 -0.019807734 0.008889469
000100 f4 f0 8d bb 29 f5 15 3d eb c2 42 b9 6c c1 2e 39
       -0.0043317024 0.036610756 -0.00018573894 0.00016665988
000110 fa 8a 80 bb 4a 06 92 3a e5 96 9c bc 04 e1 1d 3c
       -0.0039228173 0.001114079 -0.01911492 0.009636167
000120 04 57 2b 3d 2e a4 ab bc e2 3c 86 bc 96 89 22 3c
       0.04183103 -0.02095231 -0.016386453 0.009920498
000130 9d 36 0e bd d9 f8 68 bc 65 e9 8d 3c 1c 94 b4 3a
       -0.034720052 -0.014219486 0.017323205 0.001377705
000140 85 c3 b9 bb 88 f9 77 3c 91 c7 16 bd 31 0c 74 bc
       -0.0056690597 0.0151351765 -0.036811415 -0.014895485
000150 5e a3 71 39 40 24 e4 bc 70 27 22 bd 70 02 13 bc
       0.0002304441 -0.027849317 -0.03958839 -0.008972749
000160 76 48 0a 3b fd 16 09 3d 10 07 d7 bc a3 b0 b3 bc
       0.002110032 0.03346919 -0.026248485 -0.021934813
000170 e8 d6 1f bc 38 ab 34 3c f7 78 a9 bc d1 ac 46 3c
       -0.0097558275 0.01102715 -0.020687563 0.012126164
000180 55 43 28 3d 45 8b e0 3c df 8d 3c 3d 12 dc 1f bc
       0.041079838 0.027410159 0.046033736 -0.009757059
000190 a0 2a 91 bc 5e e8 f8 3b 49 90 97 3c 03 ab 08 3a
       -0.01772052 0.0075960597 0.018501418 0.0005213471
0001a0 07 89 85 bc 72 b1 9f 3c 7d 12 ac 3c 52 f9 21 3c
       -0.016300691 0.019493792 0.02100491 0.009886103
0001b0 ca e2 02 3c 60 74 d4 bc c4 25 1a 3c 37 09 4e bc
       0.007988641 -0.025934398 0.009408418 -0.012575439
0001c0 8b f6 da bc ae 29 3d 3d 6a 03 05 bc 5f 84 de b8
       -0.026728889 0.046182327 -0.00811849 -0.00010610441
0001d0 b1 55 19 3d 5a df 35 bc 76 a0 a4 bb b9 92 f1 3c
       0.037435237 -0.011100614 -0.0050240112 0.029488908
0001e0 3a 2a 80 bc 4b 7b 38 3c 11 a3 e8 bb ba 3e ca bc
       -0.015645135 0.011259864 -0.007099517 -0.024688113
0001f0 4e bb 1a bd 02 8e 27 bd 31 5d 73 3a 1e 81 e2 bc
       -0.037776284 -0.040906914 0.0009283601 -0.027649458

linear.2.weight f4 [128, 128]
000000 39 19 18 3c a4 d9 21 3b 82 8c 44 bd 16 e8 90 bd
       0.009283357 0.0024696374 -0.04798556 -0.07075517
000010 f6 1c cd bb 72 6e 88 bb 09 3c 21 3b 99 7c 64 3c
       -0.006259556 -0.0041635567 0.0024602434 0.013945722
000020 96 7d 6c bd 63 66 ee bc 4e fd a0 bc 06 65 0c 3d
       -0.057736956 -0.029101556 -0.019652035 0.03427603
000030 48 fb 76 bd 0b 25 59 3c bd 19 1e 3d 0b ab 2f bd
       -0.060298234 0.013253461 0.038598765 -0.04288773
000040 70 99 52 bc b3 f0 98 3c 91 24 10 3d 22 b2 c7 bc
       -0.012853965 0.018669462 0.035191122 -0.024376933
000050 48 ad fe 3c cb 55 3d bd 5a e2 6b bd 72 3b 1c 3c
       0.031088486 -0.046224397 -0.057588913 0.009535657
000060 6c 37 76 bc 62 97 32 3d c2 e2 1c bc 9b c1 80 bd
       -0.015027862 0.0436014 -0.009575548 -0.06286927
000070 23 48 44 bd bf e3 71 3b c4 73 2d bd 67 23 77 3d
       -0.047920357 0.003690943 -0.04234673 0.060336497
000080 62 a0 71 3d 06 04 e9 3c b7 c3 0a bd cc 60 c2 bb
       0.058990844 0.028444301 -0.033878054 -0.0059319492
000090 bc 87 4f 3d a1 84 19 3b 0e fb 41 3c 0e b2 60 bc
       0.050666556 0.0023425 0.011839641 -0.013714327
0000a0 1e 28 54 bd a8 9f 0a bd 10 d5 85 3c 09 34 23 bd
       -0.05179607 -0.033843666 0.016336948 -0.039844546
0000b0 88 54 8d 39 f7 6c e9 3c e8 14 e1 bc 3e ff 03 bd
       0.00026956596 0.028494341 -0.02747579 -0.03222584
0000c0 d8 40 44 3d 64 a2 83 3c 01 28 4b 3c e0 81 3e bd
       0.047913402 0.016068645 0.012399674 -0.046510577
0000d0 2f 62 e5 3c 3e 8b 06 bd 2b 55 40 3d 5d eb e8 bc
       0.02800092 -0.032847635 0.046956223 -0.028432542
0000e0 d3 a4 2f bd e9 e9 56 bc 87 62 16 3d 64 71 61 3d
       -0.042881798 -0.013117292 0.036715057 0.05503978
0000f0 68 7c a9 3b 2e f4 39 3d 08 5e dc 3b b5 f1 7c b9
       0.005172301 0.045398884 0.0067250766 -0.00024122636
000100 d1 1f 3a 3d 2a 8c 32 bc d2 37 69 3c ef a3 09 3d
       0.0454405 -0.0108976755 0.0142345 0.033603605
000110 a3 b5 ac bc 6e 12 0b bd 1a 50 95 3a f9 07 74 bc
       -0.021082705 -0.033953123 0.001139167 -0.014894479
000120 65 6e 12 3b 19 56 86 3d db a2 74 3d 9e 91 a8 bd
       0.0022343632 0.065593906 0.059725624 -0.08230899
000130 86 19 a3 bc 6a a3 16 bc e4 8b 44 3d c9 94 eb bc
       -0.019909631 -0.009194234 0.047984973 -0.02875747
000140 15 aa bd bc 94 ed 2a bd 85 41 a7 bc af cc 6f bd
       -0.02315239 -0.04173048 -0.020416984 -0.05854481
000150 0b 80 2e bd 41 9a a8 bc b1 77 0d 3c 7f 84 02 bd
       -0.04260258 -0.020581366 0.008634494 -0.03186464
000160 17 3c 6c 3d 8c 67 15 bd 38 5b 4f 3d 3f 12 9f 3b
       0.057674494 -0.036475703 0.050624102 0.00485447
000170 af d2 e5 bc 90 60 c0 bb 39 5a 72 bd 5f d0 90 3c
       -0.028054563 -0.005870886 -0.059168074 0.017677484
000180 3f 6a 5c 3c a2 fb de 3c a8 54 8c 3c 74 4c 70 3d
       0.013453065 0.027219597 0.017130211 0.05866666
000190 c9 32 07 bd 3a 72 74 bd 49 3c a9 bb cc 15 f1 bc
       -0.033007417 -0.059679247 -0.0051646573 -0.029429339
0001a0 4f 66 8b 3b a6 5e 8d 3d 68 d9 7c bc fa a0 0c 3c
       0.0042541395 0.069028184 -0.015432693 0.008583302
0001b0 cb 1d 7b bd 55 db 8e bb fd 5c 5f bd f3 22 9d bc
       -0.06130771 -0.0043596425 -0.05453204 -0.019181704
0001c0 6b 2e 65 3d 44 c8 68 bc ad bd 20 3b 26 d2 23 3d
       0.05595247 -0.014207903 0.0024527118 0.039995335
0001d0 ce 11 39 3d 57 8d a7 3c 37 2d 97 bd 02 b3 ee bc
       0.045182995 0.020453138 -0.07381671 -0.029138092
0001e0 0c ba 8a ba e5 e2 e6 bc 6e 20 57 bd c2 6d 4d bd
       -0.0010584011 -0.028184364 -0.05252116 -0.0501535
0001f0 42 5a 04 3d 32 57 db bc 59 c1 03 bc 71 85 f0 3c
       0.03231264 -0.026774976 -0.008041703 0.029360505
000200 77 03 33 3d 6c 49 d6 3c ff ff ab 3c 63 4f a7 3d
       0.043704476 0.026158057 0.020996092 0.08169439
000210 60 6c 12 3d ed 3c b1 bc c1 9a 18 3d 8e f2 8e bc
       0.035747886 -0.021635497 0.03725696 -0.017449643
000220 82 03 a9 3d 3c da 85 bd 60 90 7a bd f0 ed 5f 3d
       0.08252622 -0.065357655 -0.061172843 0.054670274
000230 14 71 c0 bc ba 52 77 3d d4 d9 44 bd 40 35 79 3d
       -0.02349142 0.06038163 -0.0480593 0.0608418
000240 a6 8d 96 3d 14 2d 63 3d b7 98 d6 bc a9 8c af 3c
       0.07351236 0.05546291 -0.026195867 0.021429377
000250 97 80 6f 3b d7 60 02 bd cb e8 81 bd 3c f2 27 bd
       0.0036545151 -0.031830635 -0.0634323 -0.041002497
000260 da ba 0a bc 5b 4b 89 3d 48 7e 02 bd e5 65 55 bd
       -0.0084674 0.06703826 -0.031858712 -0.052099127
000270 da 66 56 bd 5e d4 a2 3c 12 4f 3a bc e0 09 75 bd
       -0.05234418 0.019876655 -0.011371391 -0.05982387
000280 57 2d 54 3c d7 9a 31 bd 5a 26 3d 3c 48 82 a8 3c
       0.012950263 -0.043360557 0.011544788 0.020569935
000290 9f c5 a8 3d 3d d3 80 bc bc bf 9d bd ae e5 3b bd
       0.08240818 -0.015725726 -0.07702586 -0.045873336
0002a0 25 1b 0e bb aa e2 9a bc f6 f7 c5 3d db 96 42 bd
       -0.002168366 -0.01890691 0.096664354 -0.04750715
0002b0 f4 41 94 bd c3 17 24 3d c3 4b cc bb ad 49 98 3d
       -0.07239142 0.040061723 -0.0062346174 0.074359275
0002c0 2f c8 f9 3c 58 16 5d 3d 0a 3e 75 3d d6 43 86 3b
       0.030490963 0.053976387 0.05987362 0.004097442
0002d0 b0 0f ca bc 43 40 85 bc 8b aa a9 3a 9f bb 79 bd
       -0.024665684 -0.016265994 0.0012944503 -0.060969945
0002e0 53 1a 60 3d 89 89 76 3d d2 43 ed bc 0c df b4 3d
       0.054712605 0.060189757 -0.028963003 0.08831605
0002f0 d3 cb 36 3c de e3 58 3d ac 65 33 3d 87 0b e4 3c
       0.011156994 0.052951686 0.043798134 0.027837528
000300 03 42 e9 bc cc 82 40 3d a2 8f 19 3d e7 b8 39 3d
       -0.02847386 0.046999738 0.037490495 0.045342352
000310 c1 27 2c 3d d5 02 20 bd 2c aa 0b 3c 5e ab 9a 3d
       0.0420301 -0.0390652 0.008524459 0.07552217
000320 c6 63 bc bb 5c 97 c3 bc 7c 1a a3 bc 0f fa 86 bd
       -0.0057491986 -0.023875885 -0.01991009 -0.06590664
000330 f2 89 2a 3d ec 91 69 3d a6 33 bf bc 74 96 84 bd
       0.04163546 0.057023928 -0.023340058 -0.06474009
000340 c5 ee 0e 3d bf a6 15 3c fc 95 77 3d b8 4e 22 3c
       0.034895677 0.009133994 0.06044577 0.009906463
000350 c2 59 50 3b 2d 86 88 3d 08 93 73 3d 08 9e 40 3d
       0.003179178 0.06666217 0.05946639 0.04702571
000360 75 84 82 3d 14 c6 82 bd b7 d5 eb 3c b0 ec 57 3d
       0.063729204 -0.06385437 0.02878843 0.052715957
000370 33 1e 48 3d ae b2 ae bc 1d 86 0c 3c bc 82 62 bd
       0.048856925 -0.021325435 0.008576897 -0.05530046
000380 7c f1 bb 3d fd 0f e7 3c e0 22 5c 3d d8 f3 33 3d
       0.09176919 0.028205866 0.053744197 0.04393372
000390 15 b5 1c bd a6 4f 02 3d e7 be ac 3d 75 98 34 bd
       -0.03825863 0.03181424 0.08434849 -0.044090707
0003a0 c7 f0 68 3c 35 fd 0b bd b3 3f 4c bd b2 ce 85 3d
       0.014217562 -0.034177024 -0.049865436 0.065335646
0003b0 9b 05 44 bd 70 98 39 3d 8b 6b 3d bd 58 ab d0 bb
       -0.04785691 0.04531139 -0.04624514 -0.006368082
0003c0 1d 51 f7 bc 0a 5c 2c 3d 21 2b 5d 3d 4d fe 4c bd
       -0.030190045 0.042079963 0.05399621 -0.050047208
0003d0 58 ea 2e bc a4 4d 5e bc 99 61 76 bd 35 18 97 bd
       -0.010675989 -0.013568316 -0.06015167 -0.07377664
0003e0 bb a5 4d bd 61 f6 21 bc 1c ff a5 3d bb c9 5b 3d
       -0.05020688 -0.009885401 0.08105299 0.053659182
0003f0 98 d7 af 3d 15 f9 50 bd 4a 12 1e bd ad 64 1a 3c
       0.08586043 -0.051018793 -0.03859166 0.009423417

linear.2.bias f4 [128]
000000 17 a8 85 bc 87 da 40 bd 9d b6 2a bb 60 80 6f bc
       -0.016315503 -0.047083404 -0.0026048787 -0.014618009
000010 ed 77 4a 3c c4 a3 35 bc 68 04 ad 3a d5 96 0a 3b
       0.012357694 -0.011086408 0.0013200166 0.0021147032
000020 c1 99 e0 bb 34 19 86 bd 66 ce 19 bc 1c 59 6e bb
       -0.0068542664 -0.06547776 -0.009387588 -0.0036369031
000030 b6 5e f8 3b 3a c4 ac 3c 52 30 ec bb fe 0b 14 3c
       0.00757965 0.021089662 -0.0072079087 0.009036062
000040 51 c8 30 bc b5 5f 87 bc f2 57 19 3b ff 6a a4 bc
       -0.010789947 -0.016525129 0.0023398367 -0.020070551
000050 82 5e 8d bc 1f 69 5f bb 3f 4b bf bb f5 06 61 3b
       -0.017256979 -0.0034089757 -0.0058378275 0.0034336422
000060 6b 94 80 3c 05 37 0e bc 2b dc 5e bb 59 4d d0 bb
       0.015695771 -0.00868011 -0.0034005742 -0.006356877
000070 05 44 b3 bc d2 8c 23 3c fc e0 1e 3b c1 92 9c bc
       -0.02188302 0.009982305 0.0024242988 -0.019112946
000080 33 a4 a4 bb 41 c2 9a bc 76 a3 b9 bc 82 bd 9e 3b
       -0.005024457 -0.018891456 -0.022660952 0.0048443684
000090 8c 70 d8 3c 52 8a 28 3c 4a e0 fe bc 5f 55 17 3c
       0.026420854 0.010286884 -0.031112809 0.009236663
0000a0 f9 0e 2d 3c 6b 8b 99 bb 2a cc 08 bd 72 03 eb 3b
       0.010562652 -0.0046858094 -0.03339783 0.0071720416
0000b0 c4 ac 9e bc f6 c2 46 bd d7 82 63 bb 41 58 b0 3c
       -0.01936949 -0.048525773 -0.0034715438 0.021526458
0000c0 26 5f 89 3c da 02 67 bb 81 c3 1b 3b 83 30 6c bc
       0.016769003 -0.0035249502 0.0023767652 -0.014415863
0000d0 a8 e3 a5 bc 17 03 8b bc 66 92 f3 3c 96 8c 1b 3b
       -0.020250157 -0.016969247 0.029732894 0.0023734919
0000e0 b2 c6 bb 3b fa 3e 64 bb 80 b5 36 3b 6c 6c a4 bc
       0.0057304734 -0.0034827576 0.0027879179 -0.02007123
0000f0 80 68 78 3c 50 05 96 3c 84 93 28 bd c6 e1 46 bd
       0.0151616335 0.01831308 -0.041156307 -0.048555158
000100 95 b0 24 bc 83 50 fb bc ce db b8 39 08 46 b4 bb
       -0.010051866 -0.03067804 0.00035258982 -0.0055015124
000110 ad 56 1f bb 19 d8 bc bc da 4b 10 3b 7c 88 85 3c
       -0.0024313137 -0.023052262 0.0022017867 0.016300432
000120 ea cb 04 3d d9 e6 2a 3c 8b a7 5a bc 6c 21 b0 ba
       0.03242103 0.010431015 -0.013345609 -0.0013437695
000130 d2 32 a2 3b a1 cc 2b bc 5f 30 37 bc 63 05 91 3c
       0.004949906 -0.010485799 -0.011180966 0.017702764
000140 55 9c de 3c 44 af 62 bb 7f 24 10 bc 41 40 c8 bb
       0.027174154 -0.003458933 -0.008797764 -0.0061111753
000150 2a 3a 9c bc 22 09 0f 3c 80 28 f8 3c 8d a8 b3 3c
       -0.019070704 0.008730205 0.03029275 0.021930957
000160 05 21 3f bc 8c be a4 3c fd cb 94 3c 4e e1 9f 3c
       -0.011665587 0.020110391 0.018163675 0.019516613
000170 dc 85 b0 3c 7c 00 04 bd bf ca 11 bb 0b dc 0a bd
       0.021548204 -0.032227024 -0.002224609 -0.033901256
000180 84 34 7a bc b2 02 70 bc b0 ef cd 3c 32 85 b7 bc
       -0.01527131 -0.01464908 0.025138706 -0.02240238
000190 44 2c f5 bb 30 23 f3 bb 0b 61 26 bc 58 20 a6 bc
       -0.0074820835 -0.007419966 -0.010154973 -0.020279095
0001a0 08 27 21 3b 1a 60 2d bd 33 bd 98 3c 92 80 8f bb
       0.0024589915 -0.042327978 0.018644905 -0.0043793404
0001b0 51 4c c8 bc be b8 e8 3b 25 cc 94 bb d7 2b fa bc
       -0.024450453 0.007102101 -0.0045409375 -0.030538483
0001c0 3a 8f d7 bc fb 18 2f 3c 8a 3e 44 3b 1a 75 cd bc
       -0.026313413 0.010687108 0.0029944503 -0.025080252
0001d0 b4 aa 52 bc ac 63 03 bd 92 c7 36 3c 5d 98 a3 3c
       -0.012858082 -0.032077476 0.01115598 0.019970113
0001e0 98 2b 9c bc 0d e7 12 bb 3d b1 10 bd 55 63 69 bc
       -0.019063756 -0.002241555 -0.035325278 -0.014244874
0001f0 89 ad ce bc 12 4e a2 3b b3 12 9e 3b ee 92 27 bb
       -0.025229232 0.0049531544 0.0048240065 -0.0025569755

linear.3.weight f4 [128, 128]
000000 ba ce 96 bd 61 09 1e bd 4b 16 67 3d f0 f2 1a bc
       -0.07363649 -0.038583163 0.056417745 -0.009457335
000010 88 07 1f bd 7e a8 7c bd 2b 81 6a 3d d7 23 4a bd
       -0.03882554 -0.061684124 0.05725209 -0.049350586
000020 f8 c8 05 bd 5b d8 83 3d 7e a3 4d bb da de 32 3d
       -0.03266236 0.06437751 -0.0031377967 0.04366956
000030 f0 64 c4 3c b1 15 a1 bd e4 9d 3c 3d 81 68 5a bd
       0.023973912 -0.078654654 0.046049014 -0.05332232
000040 09 5d 99 3c 57 06 5b bc 58 c1 af 3c f9 90 60 3d
       0.01872112 -0.013368211 0.021454498 0.054825757
000050 0a 00 d0 bc 8b 14 a4 bc f8 28 56 bd 58 64 ca 3c
       -0.025390644 -0.020029327 -0.052285165 0.02470605
000060 fd 94 1d 3c 84 1d 61 3d 5b 8c 93 3c 05 9d 7e 3c
       0.009618041 0.05495979 0.018011263 0.015540366
000070 37 b5 f4 bc b6 5f 5d bd bc c7 60 bc 71 26 f5 bc
       -0.029871566 -0.054046355 -0.013719495 -0.029925557
000080 a6 a6 08 bd fc 28 a4 3c ea 44 50 bd 26 cd 21 bd
       -0.033362053 0.020039074 -0.05084697 -0.039502285
000090 81 69 28 3d 68 cb 64 bd 6f 33 b6 3c aa cd f9 3c
       0.04111624 -0.055858046 0.022241322 0.030493576
0000a0 0d 12 bc bc 99 53 94 3c b8 0f bb 3c 42 dd 04 3d
       -0.022957826 0.018106269 0.022834644 0.03243757
0000b0 50 0d d0 3c 9d 58 a8 bc 6b df 26 bc ab 09 09 3d
       0.025396973 -0.020550067 -0.010185103 0.033456486
0000c0 1c 05 8c bd cc 4c fd 3c ad 9f f6 3c 71 59 2f 3c
       -0.06836912 0.030920409 0.030105436 0.010702477
0000d0 2b 06 2b 3d e8 7a 62 bd 28 14 93 bc d4 ed 44 bd
       0.04175393 -0.055292994 -0.017953947 -0.048078373
0000e0 b3 45 4e 3d d9 ac 00 3b 98 b5 8c 3d 83 c1 4e bd
       0.05035944 0.0019634275 0.06870574 -0.050477516
0000f0 fe 98 3a bc f8 c4 4f 3d 22 d5 ab bc aa a6 a8 3c
       -0.011389015 0.050724953 -0.020975653 0.020587284
000100 f8 97 09 3d 97 7a 2a 3d ac dc 9c 3c dd 2d da 3c
       0.033592194 0.041620817 0.019148193 0.026633197
000110 c0 3f 86 bc ee 6b 8c bc a3 2e 69 3d c9 5e 41 bd
       -0.01638782 -0.017141309 0.056929242 -0.047209535
000120 ed f0 83 3d 9b b2 df bb 24 ef 73 bd bb ec 36 bc
       0.06442437 -0.0068267114 -0.059554234 -0.011164839
000130 9b a2 17 bd 3d dc fc 3c 19 c3 84 bd 44 8b 87 bc
       -0.037020307 0.030866737 -0.064825244 -0.0165459
000140 50 5f 4a 3d b6 13 c9 3c c3 9c fd bc 9e 42 24 3b
       0.049407303 0.024545532 -0.030958539 0.002506412
000150 55 33 51 3d 88 fd dd 3c 12 2b 93 3c 91 38 2e bd
       0.051074345 0.027098432 0.017964873 -0.042534415
000160 5d 5f 31 3d 1e 84 63 3d 62 8d 69 3d e7 97 8b 3d
       0.043303836 0.05554592 0.0570196 0.068160824
000170 86 a7 a0 3d f7 06 55 3c 9c e1 e0 bc cd 4e 87 3c
       0.078444526 0.013002149 -0.027451329 0.016517067
000180 ad e9 b7 b9 54 db 9a 3b 67 bf b1 3c 99 90 d7 3a
       -0.00035078582 0.004725853 0.021697713 0.0016446292
000190 4d dd 20 bd b1 52 b0 bc 4f c7 26 bd e0 0e a1 3c
       -0.03927355 -0.021523805 -0.04071742 0.019660413
0001a0 83 b0 2e bd 6b 7d 52 bd b1 a1 ce 39 4a 59 88 bd
       -0.042648803 -0.05138914 0.0003941185 -0.066576555
0001b0 9e 83 76 3c 03 31 07 bc 14 81 17 3b 3f 01 48 3d
       0.015046028 -0.008251431 0.0023117708 0.048829313
0001c0 1d b1 71 bd 45 8f a9 bc ff 4d 08 3d 2e bc 43 3d
       -0.0590068 -0.020698199 0.033277508 0.047786884
0001d0 54 94 47 3d 35 8a 83 3d 1e 08 85 3c e7 4f 18 bc
       0.04872544 0.06422845 0.016239222 -0.009296394
0001e0 87 84 c4 bc 26 88 cc 3b aa dd 1a 3c 32 d2 15 3c
       -0.023988975 0.006241816 0.009452263 0.009144353
0001f0 37 35 0d bd 0d ca 2d bd c8 d9 42 bc a8 1e 75 3d
       -0.034474578 -0.04242902 -0.011892743 0.05984369
000200 6b dc 0a 3d b7 bf 77 3d a4 f0 10 bd b7 ec 5b bc
       0.033901613 0.060485568 -0.035385743 -0.013423136
000210 bc 72 49 3d 30 50 b0 3b 96 b0 1e bd 52 aa 8d 3d
       0.049181685 0.005380653 -0.038742624 0.06917252
000220 bd cf 13 3d 72 70 9c bc b0 46 b4 bc 6c 93 b9 3d
       0.036086787 -0.019096587 -0.022006363 0.090613216
000230 75 6e 68 3d 89 d0 4c 3d 93 ca 76 3d 39 49 62 bd
       0.056745965 0.050003562 0.060251784 -0.05524561
000240 d9 38 cd 3c d8 7c 35 bc 05 be 99 3d 49 0b fe 3c
       0.025051521 -0.011077128 0.075069465 0.03101124
000250 b1 f0 89 3d 5c 18 02 bd d7 69 85 bc a4 47 ad bc
       0.06735361 -0.031761512 -0.01628582 -0.021152325
000260 38 a5 1e bd f5 20 7b 3d e0 27 ad bb 6b ae b6 3c
       -0.038731784 0.061310727 -0.0052842945 0.022299966
000270 8c 43 b7 3c fc 3e 72 bc 8c 38 27 3d 21 02 d6 3c
       0.022371076 -0.014785524 0.04082541 0.026124062
000280 75 22 58 3d 67 58 dd bb 25 0f 7d bc e1 3b e9 3c
       0.052767236 -0.006754923 -0.015445505 0.028470935
000290 42 98 9e 3d 2b da 61 bc 33 43 89 3d 10 45 60 bc
       0.077438846 -0.013784925 0.0670227 -0.013688341
0002a0 c4 9d 06 3b d1 bc e2 bb 37 e7 51 3d b8 2b de 3b
       0.0020540813 -0.0069194813 0.051245894 0.006780114
0002b0 94 fe 3a 3d 89 c6 82 3d 67 1a 43 bc 6b 2e 28 3d
       0.04565294 0.06385524 -0.01190815 0.041059893
0002c0 7f d0 c7 3a d6 fc 49 bc 84 ef 14 bb ab 82 25 3d
       0.0015244632 -0.012328347 -0.002272577 0.040407818
0002d0 13 96 e4 bc 79 29 2e 3d 93 2c 1d 3c fd 45 35 3d
       -0.027903592 0.04252002 0.009593147 0.0442562
0002e0 ea 9b d1 3a a9 91 cd bb f7 c4 0f ba 00 8e ef bc
       0.00159919 -0.0062734676 -0.0005484367 -0.029242516
0002f0 b3 1b 27 bb ef 2d 85 3d 10 cc ed 3b 84 99 74 3d
       -0.0025498688 0.06502902 0.007256992 0.059716716
000300 60 42 9f bd 05 2d ef ba 3f 00 10 3d 53 89 1b 3d
       -0.07776332 -0.001824767 0.035156485 0.03797276
000310 20 4b 71 3b d2 5f 11 bd 65 7f dd 3c 42 ba a2 bc
       0.003681846 -0.035491772 0.027038286 -0.019864205
000320 0d 82 8b bb 2d 37 f5 3b 37 16 7b bc 99 2c 14 3b
       -0.0042574466 0.007483384 -0.015325121 0.002260959
000330 dc 46 86 bd e5 9d 4e bc 70 16 45 3c 52 a8 af 3c
       -0.06556484 -0.012610887 0.012029275 0.021442566
000340 02 15 12 bc 73 6d 3f 3d f2 68 3e 3c 97 1d 64 bd
       -0.008916141 0.04673524 0.011621701 -0.05569228
000350 95 7a f8 3c d6 b9 a6 bc 9c ec ad 3d 74 03 3e 3b
       0.03033189 -0.020352285 0.08492395 0.0028993757
000360 5f 8b 83 3d 17 d1 a0 ba 12 0d 70 bc 1e 37 50 bd
       0.06423067 -0.0012269345 -0.014651554 -0.050833814
000370 a7 6e 63 bd 45 cb 3d 3d 25 fb 1f 3b 11 fa 6b bd
       -0.05552545 0.04633643 0.0024411168 -0.05761153
000380 2a d0 52 bd 9a 7c a2 3a 52 ce 88 3b b8 50 3a 3d
       -0.051468052 0.0012396753 0.004174986 0.045487136
000390 2e e6 3e 3c 60 9a 4d bc 07 39 81 bc ca e6 97 bd
       0.011651559 -0.012549013 -0.015774263 -0.074170664
0003a0 03 a9 0c 3d 1b 17 5a 3b 87 88 56 b9 99 20 4f bd
       0.03434087 0.0033277932 -0.00020459491 -0.050568197
0003b0 4f 33 15 bc 42 90 36 bc dd 5e f1 3c 16 b9 6c 3d
       -0.009106471 -0.011142792 0.02946418 0.0577937
0003c0 fa 1e 19 bd d0 0a 77 bc 5f f4 23 bc 0d c2 0c ba
       -0.037383057 -0.0150782615 -0.010006993 -0.0005369492
0003d0 d2 57 22 3d a6 33 82 3b fe ce ee bc 55 2b 5e bd
       0.039634533 0.003973442 -0.029151436 -0.054240543
0003e0 5f ff cc 3d 45 b0 0f bc 01 41 af 3d ee 41 6f bd
       0.10009646 -0.008770053 0.085573204 -0.058412485
0003f0 01 1b f1 3c 25 ec 30 bd 1a 9d 86 3d f4 8e 2e bd
       0.029431822 -0.043193955 0.065729335 -0.0426168

linear.3.bias f4 [128]
000000 fe cf ea bb 9f 7f 6e 3c 42 e9 dc bb 0e 81 b3 bb
       -0.007165908 0.014556794 -0.0067416737 -0.005478031
000010 b5 b9 a5 bd 02 63 9e bb 79 e5 05 bb ca fb 97 3a
       -0.080920614 -0.00483358 -0.0020430966 0.0011595425
000020 d3 e5 d8 bc 43 b1 22 bd f9 b0 bd ba 04 8c 50 bc
       -0.026476776 -0.03971983 -0.0014472298 -0.012728695
000030 5b 01 1d bb 8f d9 67 ba de 79 97 3c ed 0f 5a bb
       -0.0023957107 -0.00088443694 0.018490728 -0.0033273653
000040 a3 44 9c bc 86 ee f4 3b 20 d7 b1 3c 36 9c 87 39
       -0.019075697 0.0074747233 0.021709025 0.00025865593
000050 bf 70 be 3a 6f 63 1e 3c 3d f3 05 bd 73 30 9c bc
       0.001452945 0.0096672615 -0.032702673 -0.019066071
000060 1b a6 bc 3c c4 51 6e 3c 8a 53 05 bd 77 18 66 bd
       0.023028424 0.014545862 -0.032550372 -0.056175675
000070 96 67 96 ba 3d eb 3b bc 9f 47 a3 bc b5 30 c6 bc
       -0.0011474963 -0.011469659 -0.019931613 -0.024193147
000080 e1 43 e0 bb 8d 6f 1c bd c6 2c e6 bc 59 95 e4 bc
       -0.0068440293 -0.03819232 -0.028097522 -0.027903246
000090 91 e7 0d bd bc 6b 80 bc ed b6 29 3d c8 b0 79 3c
       -0.034644667 -0.015676372 0.041434217 0.015239902
0000a0 47 22 f6 bb e4 dc 09 bc 8d bb ab bb bf bc ff bb
       -0.0075114104 -0.008414481 -0.0052408637 -0.0078044827
0000b0 39 f7 8c 3b 27 4c a5 bc fa ac 16 bc ad e5 77 3c
       0.004301932 -0.020177914 -0.009196514 0.015130443
0000c0 60 d1 33 3c cf 35 8d 3a 39 35 05 bd a1 5c 8c bb
       0.010975212 0.0010773482 -0.03252146 -0.004283503
0000d0 49 ac 0b 3b 02 0c fd ba ad b8 cf bc e8 4b 5b bb
       0.0021312407 -0.0019305947 -0.025356615 -0.0033461992
0000e0 74 84 b0 3b ea 37 9f bc 34 69 9f 3b 8b 8d ed bb
       0.0053868834 -0.019435842 0.004864836 -0.0072495393
0000f0 bb b4 6c bb d4 5e 01 bc 94 0a 71 3a fb a9 ed bb
       -0.0036118466 -0.007896144 0.00091949967 -0.0072529293
000100 68 02 96 bc 80 56 15 bd d6 ff 98 bb 2c fe f9 bc
       -0.018311694 -0.036459446 -0.00466917 -0.030516706
000110 65 8a 9e 3b 5b 6f d0 3b 9e b2 88 b8 eb 3f e0 bb
       0.0048382753 0.006360931 -6.5182554e-05 -0.006843557
000120 f7 2a 1d 3c 2e 08 80 3c 1a bd 02 3c a2 c8 27 ba
       0.009592763 0.0156289 0.007979656 -0.0006400441
000130 d9 4f 08 bd a6 d8 54 bd 28 aa bf 3c 5f eb 29 bc
       -0.033279274 -0.051964425 0.023396567 -0.010371058
000140 85 00 e7 bb 25 60 03 bc 1f b8 9a bc bd 7f 0a bd
       -0.0070496225 -0.008018528 -0.018886624 -0.033813227
000150 2a 30 01 3c 1b 55 6a bd 20 27 94 bc f1 d7 d4 3b
       0.007885018 -0.05721007 -0.018085063 0.006495469
000160 29 4b 94 3b af 24 83 bd ef f7 13 bc 1f 19 a0 3c
       0.0045255614 -0.06403481 -0.00903128 0.019543229
000170 fa 5c 5a 3c 26 f3 91 bc 27 3e e4 bc 8f 8f 12 bc
       0.013327831 -0.017816138 -0.027861668 -0.00894536
000180 83 0c 84 bc 1b b4 5f bc 07 ec 3f 3c 67 21 3d bd
       -0.016119247 -0.01365378 0.011713988 -0.046174433
000190 23 87 20 bd 60 d5 ea ba b0 2c 05 bc 6a 0c d4 bc
       -0.039191376 -0.0017916374 -0.00812833 -0.025884826
0001a0 87 81 85 3c 55 af a3 bd ff 5d 29 bc 9a 05 95 bb
       0.016297115 -0.07992426 -0.010337352 -0.004547787
0001b0 b5 10 19 bc a7 1a 23 bd 70 3b 21 bb e1 ae cd bc
       -0.009342362 -0.03982034 -0.0024602078 -0.025107803
0001c0 5b 4d 70 bd 55 74 fa 3b e1 4d 63 bc 18 91 b7 bb
       -0.058667522 0.0076432624 -0.013873548 -0.0056020133
0001d0 cf f6 89 ba 9b 36 20 bc 45 b4 e5 bb 13 8d 72 3c
       -0.0010525825 -0.009778644 -0.007010015 0.0148041425
0001e0 dc 2d b7 bc 7e 94 6c bc 08 ec b5 3a 26 4b 85 3a
       -0.022360735 -0.0144397 0.0013879547 0.0010169491
0001f0 00 54 bb bc 32 4e b0 bc c8 b0 8f 3b 2e 99 6a 3c
       -0.022867203 -0.021521661 0.0043850876 0.014318747
